well-trained.pt (torch, 65102 bytes, 16 tensors)

layers.0.weight f4 [48, 4]
000000 4f 19 d7 3c 5e 54 89 3e 92 fe 5e be f4 58 eb be
       0.026257185 0.2682218 -0.21776798 -0.45966303
000010 e0 b7 38 bf ec 4b 09 3e 8c 3c bc be cc c0 d5 3e
       -0.7215557 0.13407868 -0.36764944 0.41748655
000020 5e 9b 74 bd 4c 7b 07 3e 2d 04 62 be 96 a2 4e be
       -0.059718482 0.13230628 -0.22071905 -0.20179209
000030 a3 a3 09 bf 52 8b a9 be 23 4e ab be c7 58 94 be
       -0.53765315 -0.33114105 -0.3345805 -0.28973982
000040 1d 76 b4 3e 18 9b 99 3e 18 1e e8 bd 3b 90 d0 be
       0.35246363 0.3000114 -0.11333865 -0.4073504
000050 ca e5 06 3e 4e 94 d4 3e 3d e6 f6 bd 32 d4 b3 3e
       0.13173595 0.41519397 -0.12055633 0.3512283
000060 7c 23 62 be 10 b5 58 3d fb 0c 3c 3f 35 9b 83 be
       -0.22083849 0.05290705 0.73457307 -0.2570435
000070 dd 29 6d bf e0 9e 01 be cf 76 90 be 1b ce b6 3e
       -0.92642003 -0.12658262 -0.28215644 0.3570412
000080 1a 1f 44 bf c0 b0 6b be 5c f1 ca be 91 ae 02 bf
       -0.7660996 -0.23016644 -0.39637268 -0.5104762
000090 0a 95 96 be 9e 0e dc 3e e2 4f 3a 3e 77 a4 55 3d
       -0.29410583 0.42979902 0.18194535 0.0521588
0000a0 27 10 4b 3d 3a 3f 83 be 92 36 0e be 2a 14 2d bf
       0.04957595 -0.25634176 -0.13888004 -0.6760889
0000b0 bc 1c e0 be c6 f9 83 be cf 61 e5 3e 50 f8 ba 3e
       -0.43771923 -0.257765 0.44801185 0.36517572
0000c0 91 c0 db be 20 cb 93 bc d9 bd e5 3e 9b 96 28 3f
       -0.42920354 -0.018041193 0.44871405 0.65854806
0000d0 05 35 21 3f c8 55 8a 3d f7 eb be 3e ee 56 0c bf
       0.62971526 0.06754643 0.37289402 -0.54820144
0000e0 a4 d2 73 be 6c 7a c6 be 4e 52 09 bf 9c d7 59 be
       -0.23810822 -0.38765275 -0.5364121 -0.21273655
0000f0 a0 4f 8e 3d f8 e7 4d 3e 99 ad a8 be 0b b3 f6 3e
       0.06948781 0.2010802 -0.32944945 0.48183474
000100 7c 5b a6 3e 20 3f 81 bd 8d 44 dc 3e 5e 5c b1 3e
       0.32491672 -0.06310868 0.4302105 0.34640783
000110 9e a0 87 3d 48 cf f5 3e f1 30 03 bf fa 13 37 bd
       0.06622432 0.48009706 -0.51246554 -0.044696786
000120 1b cc 2a 3d d0 1b d4 3e fd ed 00 3f c4 40 18 3f
       0.041698556 0.4142747 0.5036314 0.59473825
000130 fa dd df bd f8 9c de be fe 9e bf 3c df 4d 73 be
       -0.109310105 -0.43479133 0.023391243 -0.23760174
000140 09 69 01 be 3e 74 e3 3e 94 0b bc 3e 3e cb 24 bf
       -0.12637724 0.44424623 0.36727583 -0.6437262
000150 26 f8 00 3d c8 80 ac bd a5 8e 06 bf 68 e1 3f 3e
       0.031486653 -0.084230006 -0.5256141 0.1873833
000160 47 9c de 3e 34 a1 97 be b4 87 17 3f dc 38 ca 3d
       0.43478605 -0.29615176 0.5919144 0.09874126
000170 64 58 4c 3f 48 71 3f 3e 3c e0 f1 be 4a c8 05 bf
       0.79822373 0.18695557 -0.4724139 -0.5225874
000180 d2 d6 f6 3e 18 53 d6 3d 87 34 db be ea 20 6c be
       0.4821077 0.104650676 -0.42813513 -0.2305943
000190 a1 be 29 3f 54 7f ac 3e 82 ea bc bd a4 2e cb bd
       0.663065 0.33690894 -0.09224416 -0.09921005
0001a0 c9 db 16 bf 80 3e 13 bc e1 a3 c1 be 7f dd a7 be
       -0.58929116 -0.008987069 -0.37820342 -0.32786176
0001b0 d2 da a2 be a0 bf 99 3d 62 a2 76 be 31 0e d2 3e
       -0.31807572 0.07507253 -0.24085382 0.41026452
0001c0 e4 27 93 be 68 49 e8 3e 5f eb 16 3f 8f 0e 91 be
       -0.28741372 0.45368505 0.589529 -0.2833142
0001d0 0c 29 18 bf 80 d2 b8 3c 1c 87 00 bd 41 0b a5 3d
       -0.5943763 0.022561312 -0.03137885 0.08058787
0001e0 de 0c ad 3d e0 59 f5 3c d5 be cb bd 3b 9a 9b 3e
       0.0844972 0.029950082 -0.09948508 0.30391106
0001f0 ba c7 02 bf a0 bb 97 be a3 b4 9d be fd 7a 4e be
       -0.5108601 -0.29635334 -0.30801877 -0.20164104
000200 34 af 5c be ba d2 d1 be 50 76 fe be 2a a1 d6 3e
       -0.2155121 -0.40981084 -0.4969964 0.41919833
000210 17 27 9f be 40 34 d2 bc ed 23 f8 3e 79 b3 18 be
       -0.3108451 -0.02565968 0.4846491 -0.14912213
000220 95 ca 86 bd c0 ad 30 bd 50 eb 07 3f 8b ca ad 3e
       -0.06581608 -0.04313445 0.53093433 0.3394359
000230 b9 b2 43 3f 06 93 a2 3e a5 a2 00 3f 30 c7 af be
       0.76444584 0.31752795 0.50248176 -0.34331656
000240 77 04 ee be 40 ba 72 be fa ca f9 3e e4 35 9c be
       -0.4648778 -0.23703861 0.4878767 -0.30509865
000250 b9 b2 bc be 02 2d c4 be 6f e5 9d be 0b c7 a6 be
       -0.36855105 -0.38315588 -0.30839106 -0.32573733
000260 df 81 16 be 56 64 8c 3e 38 67 87 3e b9 86 97 be
       -0.1469798 0.274203 0.26445937 -0.29594973
000270 22 4a bc 3e 8a 52 c8 be 60 1d f8 3c c6 a3 de bc
       0.3677531 -0.39125472 0.030287445 -0.027177703
000280 c5 2f 8a 3e 10 0e c9 bd 79 00 8a be b4 fa 20 bf
       0.2698957 -0.09817135 -0.26953486 -0.6288254
000290 5f 97 90 be 80 e1 d3 3b 60 91 a6 be b5 64 ce 3e
       -0.28240487 0.0064660907 -0.32532787 0.40311208
0002a0 fd 60 f1 be c0 36 0a bd 09 a1 f7 3e 9e df 4b be
       -0.4714431 -0.03374362 0.48365048 -0.19909522
0002b0 29 ec 52 3f 38 6c 39 3e b2 6c e3 be 50 7a b6 3e
       0.823916 0.18107688 -0.44418865 0.35640192
0002c0 34 58 42 3e 70 8f 64 be b0 76 24 3f 38 0f ce be
       0.1897896 -0.22320342 0.642436 -0.40245986
0002d0 13 b0 3d be c0 64 d6 bd 24 6b 8a 3e 2b 4f a5 3d
       -0.18524198 -0.10468435 0.27034867 0.08071741
0002e0 45 b7 59 be 40 d1 34 3e c7 cf a1 be 33 c3 e6 bd
       -0.21261318 0.17657948 -0.31603834 -0.112677
0002f0 b6 3b 56 bf 4c b6 8a 3e 1f b6 aa 3e 80 1c 07 3f
       -0.8368486 0.27092206 0.33342072 0.5277786

layers.0.bias f4 [48]
000000 a0 45 c6 be 53 bd c7 3e 5c 04 3e bd 56 d6 c9 3c
       -0.38724995 0.3901163 -0.046390876 0.024638336
000010 5a b0 e3 be 05 5e 38 3d 04 9b 7b 3d cc c9 73 3e
       -0.44470483 0.04501154 0.06142713 0.23807448
000020 74 ca 90 3e 97 e7 b9 3e 09 f1 d4 be 24 41 f3 be
       0.2827946 0.36309502 -0.41590145 -0.47510636
000030 59 a2 ea be 52 be 12 bd ce 27 86 3e de 24 80 3e
       -0.45826986 -0.035826035 0.26202244 0.25028127
000040 f3 cb 3e 3e b7 0d 7c bc 04 22 25 3e 57 9f 41 bd
       0.18632488 -0.015384129 0.16126257 -0.0472711
000050 7b e4 84 3d de 6d ac bd 5c 2c 63 be 38 c4 b8 3d
       0.06488892 -0.08419393 -0.2218489 0.09021801
000060 05 84 c9 be ab d5 71 be 65 4b d0 3e 8e ef bd be
       -0.39358535 -0.23616664 0.4068252 -0.37096828
000070 98 5e 88 bd b0 a3 01 3f 58 13 37 3e b7 fc 92 3e
       -0.06658667 0.5064039 0.17878473 0.2870843
000080 97 d5 0f bf 67 3b 3b 3e 14 ca e8 be d8 7d 8d 3d
       -0.5618529 0.18284379 -0.45466673 0.069087684
000090 e2 73 d5 3c 02 23 5a 3c 58 f0 10 3e c2 92 e0 3e
       0.026056234 0.013314011 0.14154184 0.43861967
0000a0 fc 1e 8b be 81 a4 2f 3f 21 f6 b3 3e de 96 cd be
       -0.27172077 0.6861039 0.3514872 -0.40154165
0000b0 ba 8c 0f be ab 96 fc be 23 6d ae bd 4b 90 e9 3d
       -0.14018527 -0.493337 -0.0851691 0.11404475

layers.2.weight f4 [48, 48]
000000 78 e6 29 be bf 40 8c 3e 7b 4d 8c 3c dd ff 44 be
       -0.16591823 0.27393147 0.01712679 -0.19238229
000010 57 7b 23 be 0d 01 83 be ee 25 b2 3e 84 01 6d 3e
       -0.15965019 -0.2558674 0.34794563 0.2314511
000020 82 f8 9a 3e 2e e1 d0 3d 4e fe 92 be 63 dd 87 be
       0.3026772 0.101991996 -0.28709644 -0.26536092
000030 b1 f4 08 3e de 71 7a 3e 29 83 bc 3d e3 5f 8b be
       0.13374592 0.244575 0.09204704 -0.27221593
000040 3f a4 23 be b0 d7 37 3e 4e 0e 7d be fc 32 6d 3c
       -0.15980624 0.17953372 -0.24712488 0.014477488
000050 8c e4 9c be 45 9b 1b 3e ad 83 0c 3d b6 1b 56 3e
       -0.30643117 0.1519595 0.034305263 0.20909008
000060 e2 0e 30 be bb e1 98 bd 3d 67 e3 bd 45 b2 84 3d
       -0.17193177 -0.0746493 -0.111036755 0.06479315
000070 15 95 a1 3e 20 07 c6 bc c4 4f 7e be ba f4 d3 bd
       0.31559053 -0.02417332 -0.24835116 -0.10349412
000080 4d dd 47 be fb 7b 70 bd a5 c8 84 bd 2c 9e 98 3e
       -0.19518013 -0.058711987 -0.064835824 0.29808176
000090 f1 64 02 bd fc c0 0d be 18 3d 1d bb f5 41 00 3d
       -0.031834546 -0.13843149 -0.0023992714 0.0313129
0000a0 ef 82 f7 3e 40 d0 20 be 5d 48 c1 bd e6 22 b7 3e
       0.48342082 -0.15704441 -0.0943763 0.35768813
0000b0 2d f2 55 bd af de bf 3e 26 86 31 be 70 3a 8c bd
       -0.05223291 0.37474582 -0.1733633 -0.068470836
0000c0 29 0e 31 3e 6a 09 62 3e 32 04 b5 be 41 61 4e 3e
       0.17290558 0.22073904 -0.35354763 0.20154287
0000d0 d2 93 29 bd fa 8e a1 3e 2c 13 61 37 69 99 50 be
       -0.041400738 0.31554395 1.3415509e-05 -0.20371021
0000e0 23 cf 1b 3d b1 a7 42 3c b7 72 68 3e 63 04 0e be
       0.038039338 0.011880801 0.2270001 -0.13868861
0000f0 69 59 11 be 82 45 78 3d cb 24 1d bf 9c ec fd 3e
       -0.14194264 0.060613163 -0.61384267 0.4959458
000100 78 de 3c be 91 23 ce be c7 8a 85 bc ad ae 1a be
       -0.1844424 -0.4026151 -0.016301526 -0.15105696
000110 66 6c d6 3c 49 b5 c0 be 88 7f 91 3e 15 8c 8f bd
       0.026174735 -0.3763831 0.2841761 -0.070091404
000120 cf f7 dc bd 06 f9 6b 3d a9 88 2d bc 01 47 d5 3d
       -0.10789453 0.057610534 -0.010591664 0.104139335
000130 47 5d bd be b3 21 24 3e ba ed d3 3e 62 68 15 bc
       -0.36985227 0.1602848 0.41392308 -0.009119125
000140 f9 57 30 3e 9f e3 15 3f 17 32 9b be 19 55 85 bb
       0.17221059 0.5855045 -0.30311653 -0.0040689823
000150 c6 01 21 be e1 09 1c 3e cc 72 a5 3e e3 67 14 3e
       -0.15723333 0.15238144 0.32314146 0.14492755
000160 2a ca df 3d e3 17 fe bd 37 c4 a4 3e 41 63 11 bc
       0.109272316 -0.124069 0.3218095 -0.008873762
000170 3c a6 26 3f 2d bd 08 bd ec 67 66 be 10 bb 96 3c
       0.65097404 -0.033383537 -0.2250058 0.018399745
000180 fd eb ab 3e 0b 31 08 3e da 9a 1a b8 5d f7 c8 3d
       0.33578482 0.13299958 -3.6860678e-05 0.09812806
000190 dc c2 73 be fb f1 67 3e 87 c0 9a be a6 00 00 3e
       -0.23804802 0.22650902 -0.30225012 0.12500247
0001a0 36 96 bc be 69 34 cb 3e 8e 0e f7 bd e4 14 10 3b
       -0.36833352 0.39688423 -0.12063323 0.0021985108
0001b0 31 27 fa be 6c fc e1 be 11 05 9a be 74 17 6a 3e
       -0.48858026 -0.44137895 -0.3008199 0.22860509
0001c0 ef 9f a7 3d cd 54 29 3e b8 c0 9e 3d 0c 99 87 3c
       0.08184802 0.16536255 0.07751602 0.01655247
0001d0 65 4a 8e 3b 18 74 37 3e 5b ac 89 be b7 44 e9 3c
       0.0043423646 0.1791538 -0.2688931 0.028475149
0001e0 c7 8e 84 be 36 c3 41 be 95 95 b3 be 62 98 41 3e
       -0.2589018 -0.18922123 -0.3507506 0.18905786
0001f0 98 29 96 be 86 db 5e 3e 01 c7 c7 3e 66 16 d9 be
       -0.2932861 0.21763429 0.39019015 -0.423999
000200 56 d0 45 bc 69 ce eb 3d af 98 44 be 02 69 e2 3e
       -0.012073597 0.11513979 -0.19198869 0.4422074
000210 6d bc 2f bf 77 86 a2 3d 92 34 29 3d 13 39 34 be
       -0.6864689 0.079358034 0.0413099 -0.17599897
000220 8d df 0a 3f 01 eb e4 3e a8 7a fa 3e a5 a2 e0 3b
       0.5424736 0.44710544 0.48921704 0.0068553262
000230 ba 70 13 3f dc ec b1 3d 60 61 1a bd 2b 42 b2 3e
       0.5759388 0.086877555 -0.03769052 0.34816107
000240 6a 4d 0a 3e ab 86 50 be ac 1e 6c be f0 f8 d5 bd
       0.13506094 -0.20363872 -0.23058575 -0.10447872
000250 e4 bc 66 be de e9 e1 3d 6b c1 65 be b6 81 3c be
       -0.22532994 0.11030935 -0.22437064 -0.18408856
000260 76 bd f1 be ad ff 32 3e f2 16 f6 bd 80 27 c7 bd
       -0.4721486 0.17480345 -0.12016095 -0.09724331
000270 39 76 13 3e 17 bb b0 be f0 14 ff be ab d9 05 bd
       0.14400567 -0.34517738 -0.49820662 -0.032678287
000280 54 38 98 3d f1 81 86 3c f6 e0 f6 bc a3 9b 14 bd
       0.07432619 0.016419383 -0.030136567 -0.03628124
000290 70 74 8b be 0b 45 57 be 15 ac fb 3e c5 64 2b 3f
       -0.27237272 -0.21022432 0.49154726 0.6695064
0002a0 05 f7 08 bf 4d 45 87 3c 40 41 c8 3d 1b 25 49 be
       -0.5350192 0.016512537 0.097780704 -0.19643061
0002b0 8c 4f b4 3e 72 e8 11 3e b1 e5 c8 bd f2 e1 ca bd
       0.3521694 0.14248827 -0.09809435 -0.09906377
0002c0 90 ab 3c be 29 fd 88 3e 12 85 b4 be 07 59 be bc
       -0.18424821 0.26755646 -0.35257775 -0.02323581
0002d0 7b ac 2b be 9c a6 15 bf 63 ad 8e bd 89 3b 5b 3e
       -0.16765015 -0.5845735 -0.06966665 0.2140943
0002e0 c2 7e 17 be f1 98 a2 be 61 e4 9c 3e 93 80 82 3e
       -0.14794448 -0.3175731 0.3064299 0.2548872
0002f0 ee 21 4a 3e 9a bc 07 3e 86 90 c1 be 9f 2c 1f 3e
       0.19739506 0.1325554 -0.37805575 0.15544365
000300 98 49 87 3d 67 f5 8e bd fe a7 b2 bd 99 ab 02 be
       0.06605834 -0.069804005 -0.08723448 -0.12760772
000310 9d 63 a1 bd 50 82 bf be 29 2c 37 3e 64 0a 0d 3e
       -0.07880328 -0.37404108 0.1788794 0.13773495
000320 83 0a 26 bf e5 89 e7 bd 39 7d e9 be a0 1e 4b bd
       -0.6485979 -0.11305598 -0.4560335 -0.049589753
000330 17 dc bd bd 51 2f 5f 3e 51 16 02 bf 5d 87 a6 be
       -0.092704944 0.21795394 -0.508153 -0.3252515
000340 32 21 52 bc a4 71 a6 be 4b db e3 3e 65 94 ca 3e
       -0.012825297 -0.32508576 0.44503245 0.3956634
000350 61 ba b3 bd 1a ff 6b 3d 3d 0c 0d bd 6e 87 94 3e
       -0.08775783 0.05761633 -0.0344355 0.29009575
000360 25 c4 3a 3d 5e 3b 39 be 66 65 ac 3d 20 1f 9b be
       0.045597214 -0.18089053 0.08417778 -0.30297184
000370 83 0a 8c 3b 7a 15 9d be 30 d6 02 be 08 84 9a be
       0.004273714 -0.30680448 -0.12777019 -0.30178857
000380 d3 f6 39 bd 94 25 b0 3e bb 3b 4d be ed 4f e6 bc
       -0.045401406 0.3440367 -0.20042317 -0.028114283
000390 1c 89 98 be 7c 47 83 3d 20 75 74 3d 80 a5 a4 3e
       -0.29792106 0.06410119 0.05968201 0.32157516
0003a0 3d 7f 86 3e 6f a8 43 be 19 a9 ab 3d dc 55 a0 3e
       0.2626895 -0.19107221 0.08381862 0.31315506
0003b0 1e b3 2f be e0 09 bd 3c d8 62 72 bc a5 81 a0 3e
       -0.17158172 0.023075998 -0.014794074 0.3134891
0003c0 0b a1 af be 58 10 a2 be 51 25 36 bd ad 39 00 bd
       -0.34302554 -0.31653094 -0.04446918 -0.031305004
0003d0 82 b6 1e be 0a b0 c0 3c 65 ba 82 3d a7 3d 8b be
       -0.15499309 0.023521442 0.06383208 -0.27195475
0003e0 0e f5 39 3c bb 1f ce bc 50 ff 1f be 5a c2 69 3e
       0.0113499295 -0.025161615 -0.15624738 0.22828045
0003f0 3d fc bb 3e b6 2d ea be 2c 44 4b 3e 52 87 20 3e
       0.3671588 -0.45738 0.19850224 0.1567662

layers.2.bias f4 [48]
000000 c9 0f 99 be 28 0d 05 3e b3 59 af bd dd ee 09 3e
       -0.29894856 0.129933 -0.08562031 0.13470025
000010 5f ac 4b be 0e db 58 be cc 2f de bd 0e e6 df bd
       -0.19889973 -0.21177313 -0.1084896 -0.10932551
000020 d9 9a 77 be 18 15 b3 be e8 09 84 3c 28 de 57 3e
       -0.24180163 -0.3497703 0.016118005 0.2108084
000030 ea b5 3e be f6 1b 19 3e c4 9f b8 be 11 27 bf be
       -0.18624082 0.14952073 -0.36059391 -0.37334493
000040 53 84 71 be 47 c3 32 be 58 3d bb 3d 47 a8 5e be
       -0.23585634 -0.17457305 0.0914256 -0.2174388
000050 de 0a 77 3e af d5 27 3c c7 64 b0 be 96 40 66 3d
       0.24125239 0.010243817 -0.34451887 0.056213938
000060 b4 bf 46 be 3c ab d9 be e8 91 b1 bd 11 1b fb 3d
       -0.19409066 -0.42513454 -0.086704075 0.12261022
000070 47 90 24 3c a1 4d 79 3d f1 6e 1e be fa 61 b3 bd
       0.010044164 0.06086505 -0.15472008 -0.08758922
000080 e3 b8 91 be 1c 2e a6 3e f0 f0 06 3e 37 34 59 3e
       -0.2846137 0.32457054 0.13177848 0.21211325
000090 4d 07 02 be 30 b1 c3 3d 6b 21 4c bd 48 f3 ad bd
       -0.12698098 0.0955528 -0.049836557 -0.08493668
0000a0 12 fe 3b 3d c3 48 2b 3e 3e a6 9e 3d 4c 8b 0a 3e
       0.045896597 0.16726975 0.07746552 0.135297
0000b0 7b 01 e9 3e 8f 11 e5 3d 97 40 82 bb 79 71 6e 3d
       0.45508942 0.1118499 -0.003974985 0.058213685

layers.4.weight f4 [48, 48]
000000 f9 ba 87 3d 7a 08 a9 bd be 2a a2 3e d6 c9 31 3e
       0.06627459 -0.0825357 0.31673235 0.1736215
000010 99 4f 7e 3e 0f 03 9a 3d 54 b1 a4 bd e8 ee 50 3d
       0.24835052 0.07520115 -0.08041635 0.05100909
000020 ce 10 28 3f 68 7b 16 be b2 cc eb 3c 5e ab be be
       0.6565064 -0.14695513 0.02878413 -0.37240118
000030 cb 6c 5b 3e dc b6 dd 3d ab 94 16 3f 59 4e 19 be
       0.2142822 0.10825893 0.588206 -0.14971294
000040 c3 fb 80 be 0e 2d b8 3e 0a d9 d4 be f5 98 1d be
       -0.2519208 0.35971874 -0.41571838 -0.1539038
000050 de ae c1 bd 32 a1 a3 be c0 32 16 be bb d0 6c be
       -0.094571814 -0.3195892 -0.14667797 -0.231265
000060 1d 06 63 3e 80 f5 b1 be 60 ea 31 3d c6 2b 9d 3d
       0.22170301 -0.34757614 0.043436408 0.07674365
000070 2f 7d bd be 78 0c d9 3d c4 96 af bd 57 3d 5a 3e
       -0.3700957 0.10598081 -0.08573678 0.21312462
000080 0e 77 57 be 81 fe ca be 30 49 2b 3d d9 45 54 bd
       -0.2104151 -0.39647296 0.041817844 -0.051824424
000090 f4 0e 94 bd dd 52 c7 be 09 5b c1 be 1e 8c 36 3e
       -0.072294146 -0.38930407 -0.37764767 0.17826888
0000a0 2f f7 90 3d c2 12 93 3e 9f e1 4d be 14 52 bc 3e
       0.070783965 0.2872525 -0.20105599 0.3678137
0000b0 08 ec 07 3e 57 0e a9 3d 35 f5 33 3e b1 8f b4 be
       0.13273633 0.08254688 0.17574008 -0.35265878
0000c0 fd 67 7f 3e ad 1d f4 3d 0f 36 0c 3e 20 b2 54 3d
       0.24942012 0.11919723 0.13692497 0.051927686
0000d0 dd 4d 82 bc 7d d5 b5 3e 40 40 9b 3d df 05 c6 bd
       -0.015906269 0.3551444 0.07580614 -0.096690886
0000e0 28 9d 2c 3e 76 cf 9c 3e f8 f4 92 be 58 bb 40 3e
       0.16856825 0.3062703 -0.2870252 0.18821466
0000f0 f1 4e 1d 3e 3c 78 ec be b8 47 2a 3e 84 68 23 3d
       0.15362145 -0.46185482 0.16628921 0.039894596
000100 6b da 75 3e 5b 8b 59 bb 11 71 a5 3e b1 43 19 be
       0.24009101 -0.0033194635 0.32312825 -0.14967228
000110 d5 5b 46 be 42 bf 8b 3e db 7b bf 3d 61 0c 94 be
       -0.19370969 0.27294356 0.093497954 -0.28915694
000120 43 28 4d 3e 9e 30 fc 3c bc 92 e5 3d bd 6f 8b bb
       0.2003489 0.030784901 0.11209628 -0.0042552636
000130 67 9b da bc ad 96 a0 bd 7b 8a f3 3d 8f 1c 37 3e
       -0.02668543 -0.07841239 0.118916474 0.17881988
000140 c3 9f 91 3d f7 a6 14 3e 39 11 83 be 29 ad 1e 3d
       0.0711055 0.14516817 -0.25599077 0.038739357
000150 c4 dd 30 3e 8c 78 d3 bd e0 8c 50 3e 24 9b dd 3e
       0.17272097 -0.10325727 0.2036624 0.43282425
000160 cb 67 8d be 82 b5 9e bb 11 96 74 be 55 3c 92 bd
       -0.2761825 -0.0048434148 -0.23885371 -0.07140414
000170 a5 ed 37 bd 8d 84 40 3e b8 36 e8 3c f7 2c 1e 3e
       -0.04490437 0.18800564 0.028346404 0.1544684
000180 12 ad f1 bd 46 23 ff bd 55 ec 2d be a3 34 2b be
       -0.11800589 -0.124579 -0.16984685 -0.16719298
000190 12 40 91 bd df 0c ff bd 6f 60 b1 3e 66 04 5f bd
       -0.070922986 -0.12453627 0.34643885 -0.054447554
0001a0 bb a2 28 bd 38 6d 76 3d 08 08 0e 3e 08 b1 40 3d
       -0.041170817 0.060162753 0.13870251 0.04704383
0001b0 c5 82 4c be 5f a9 50 be 2e ef 25 3e a4 22 80 be
       -0.1997176 -0.2037711 0.16204521 -0.2502643
0001c0 4e 57 1e be d2 5d 49 3c 4a ca 8a 3e 96 1e e4 3e
       -0.15462992 0.012290435 0.2710746 0.44554585
0001d0 ba 5a 30 3d 68 03 42 3e 98 29 98 bd de 14 cf bd
       0.043055274 0.18946612 -0.074298084 -0.10111402
0001e0 2b b0 63 be 7e a8 30 3e c6 95 da bb 49 8e 21 be
       -0.22235171 0.17251775 -0.0066706864 -0.15776934
0001f0 79 36 61 3c 84 ad e9 bd fc ef 3d 3d c3 02 40 3d
       0.013745897 -0.114100486 0.046371445 0.046877634
000200 80 48 cd bd e8 61 c2 3d e1 fd ac 3d ab 12 77 3e
       -0.10023594 0.094913304 0.08446861 0.24128215
000210 06 ea 01 bd d2 91 aa bb 18 0c 4c be 0d 87 f2 bd
       -0.031717323 -0.0052053714 -0.19926488 -0.11842165
000220 c7 21 ce be e3 fe a9 3d cd 50 9f bd d4 58 84 be
       -0.40260145 0.08300569 -0.077790834 -0.2584902
000230 7c 46 06 3e 60 24 22 3e 12 da 02 bf 17 96 8e 3d
       0.13112825 0.15834188 -0.51114 0.06962221
000240 a8 6f e1 bd 39 69 81 3d 2d f3 d3 bd a9 4c 9b 3e
       -0.11007625 0.06318898 -0.103491165 0.30331925
000250 39 87 eb 3d 61 2d b5 3e 5d f8 00 bd 7d de 34 be
       0.11500401 0.35386184 -0.031486858 -0.17662998
000260 e6 b7 e2 be 89 9a 1a be 42 62 07 be c1 f6 6d be
       -0.44280928 -0.15098013 -0.13221076 -0.2323866
000270 88 6e 83 3e d6 51 85 3e 57 ff 53 3e db 01 f3 bd
       0.25670266 0.26038998 0.20702873 -0.11865588
000280 c0 b4 3f 3e a8 94 51 3e ca 1c 8b bf 66 16 36 3f
       0.18721294 0.20466864 -1.0868161 0.7112793
000290 d0 f9 43 bc c2 ab 09 3e 78 a8 ae bd 96 e9 26 3e
       -0.011961415 0.13444427 -0.085282266 0.16300043
0002a0 f2 36 62 be 9a d1 2f 3e 4a 09 29 3e 61 b8 e6 3e
       -0.22091272 0.171698 0.1650745 0.45062545
0002b0 93 23 27 be 4c 83 78 3e 9f 30 41 3f 38 5d a4 3e
       -0.16322164 0.24268836 0.75464815 0.3210237
0002c0 06 b3 e7 be 47 f1 4f be ae f9 0e 3e c9 e1 60 bd
       -0.45253772 -0.20306884 0.13962433 -0.054902826
0002d0 fa 12 c6 bc 23 db 6d 3e 77 67 b3 be ad 66 11 3e
       -0.02417897 0.23228125 -0.35039875 0.14199324
0002e0 9c 4f 1e 3e 3d 8c d4 3e 79 e7 1a 3f a4 13 d4 3e
       0.15460056 0.41513243 0.6050945 0.41421235
0002f0 c1 40 2f 3e 5b 4d da 3e eb 80 59 3d 2d c9 97 3e
       0.17114545 0.42637143 0.05310146 0.29645672
000300 89 3e f1 bb 77 1a f2 3d 05 31 e0 3d e2 ff a5 bc
       -0.007362191 0.11821454 0.1094685 -0.020263616
000310 15 18 e6 bd ca 83 08 be 62 d5 18 3e 14 21 89 bd
       -0.11235062 -0.13331524 0.14925149 -0.06695762
000320 c0 6b 25 3b 4a 80 0d be c3 33 1d be a3 a0 ab 3d
       0.0025241226 -0.1381847 -0.15351777 0.083802484
000330 03 91 bc be 98 7f e9 3d 6e e6 bc 3e a5 c2 0e be
       -0.36829385 0.1140129 0.36894554 -0.13941438
000340 50 3f 7b 3e e0 86 d3 bd 9d ac 3c 3d f0 7f 3e 3e
       0.2453587 -0.1032846 0.046063054 0.18603492
000350 ed 87 af bd 57 da 82 3e 58 48 b9 3c ab bd 87 3c
       -0.08570848 0.25557205 0.022617504 0.016569933
000360 c0 3a 3b 3e 90 a7 19 bd 0e 34 b4 3e 39 90 b7 be
       0.1828413 -0.037513316 0.35195965 -0.3585222
000370 34 01 d8 be ab 53 2d 3e 57 cb 8f bd f0 b8 01 3c
       -0.42188418 0.16926448 -0.07021206 0.007917628
000380 54 3d 16 3d 51 7b 98 be 8e 83 25 be 69 f5 65 bd
       0.03667958 -0.29781583 -0.16163465 -0.056142244
000390 79 68 68 bd 45 ab 35 be ba 01 9a be 6d fd 66 3d
       -0.056740258 -0.17741115 -0.30079442 0.05639403
0003a0 d1 59 d1 bb 4e db eb 3c b1 23 7b bd ae 6b 07 3c
       -0.006388881 0.028791096 -0.061313335 0.008265419
0003b0 42 c6 95 3e ff 55 fe bd cf b9 a6 3d 5f 76 1d be
       0.2925282 -0.12418746 0.08140909 -0.15377186
0003c0 c2 d3 2a 3e 9a 84 ca 3e a3 13 fe bb be e4 2c be
       0.16682342 0.39554292 -0.0077538057 -0.16884133
0003d0 28 6f 05 bd ee ae a7 3d e6 55 a3 3d 9e 03 5e bd
       -0.03257671 0.08187662 0.07975368 -0.05420267
0003e0 14 b6 65 3e 6d eb 0b bd aa 7d eb bd 67 d0 ad bd
       0.22432739 -0.034160066 -0.11498578 -0.08487015
0003f0 93 a6 a3 bd f2 e3 9e be eb 18 c2 be 07 12 be bc
       -0.07990756 -0.31033283 -0.37909636 -0.023201955

layers.4.bias f4 [48]
000000 17 a3 19 3e 95 82 b4 be a3 42 95 3e 33 e6 8b 3d
       0.1500362 -0.35255876 0.29152402 0.068310164
000010 9d 88 d0 3c 89 4f 08 be bc 4f bb b9 fd 5a 55 be
       0.025455767 -0.1331159 -0.00035726826 -0.2083549
000020 30 f5 96 be 81 91 4b bd ae dd e7 bd b1 2b 9a be
       -0.29483938 -0.04969931 -0.11321579 -0.3011146
000030 12 93 16 3e 08 19 f1 3d 33 5e d5 bc 40 76 8a bd
       0.1470454 0.117723525 -0.026045894 -0.06760836
000040 fc 79 78 3d 57 fb 0a bc 93 21 62 3d 08 3f 19 3e
       0.06066321 -0.008482776 0.0552078 0.14965451
000050 9f 40 55 be 34 ba b1 bd b1 1a df 3c 4d 11 25 3e
       -0.20825432 -0.086780936 0.027234407 0.16119881
000060 4a f0 6e 3d 55 11 f6 bd 2d 93 04 be cf ec 2a 3e
       0.058334626 -0.120150246 -0.12946768 0.16691898
000070 a0 ad fd 3d cd 7c a3 be 79 fb 8a 3d 26 84 cc bd
       0.12386632 -0.31931153 0.06786246 -0.09986143
000080 89 ee e0 3d e5 95 05 3e a2 2c 23 3e 3c 57 bb 3d
       0.10982997 0.13045461 0.15934995 0.09147498
000090 cb 33 ee bc f6 4e 29 bd 5c c7 17 3e f1 13 c3 bd
       -0.029077431 -0.04133507 0.14822143 -0.09525288
0000a0 0b 6d 19 be f9 ba 16 bd 83 d7 8d 3d 03 5d 33 3d
       -0.14983003 -0.036799405 0.06925871 0.043789875
0000b0 4d 7f 54 3d 1f e9 56 be a1 a5 22 bd 49 6b 7c 3d
       0.051879216 -0.20987366 -0.039708737 0.061625753

layers.6.weight f4 [48, 48]
000000 93 28 c9 bd 13 3f 69 3e 7d d7 e6 3d 02 bb 61 be
       -0.09822192 0.22777967 0.1127157 -0.22043994
000010 98 c4 36 be fe e6 8f bc c5 76 8f bc 09 70 23 3e
       -0.17848432 -0.0175662 -0.017512688 0.15960707
000020 a5 bd 9e 3c 78 7a cd 3c 90 9a 52 be 7e e0 75 be
       0.019377539 0.025082812 -0.20566773 -0.24011418
000030 29 9e ae bd 3c e2 2a bd c2 33 81 3d d5 a4 38 be
       -0.085262604 -0.04171966 0.063087 -0.18031628
000040 a0 78 8c 3d d5 6c 2c 3d ce 6e 27 be 3e b5 ad bd
       0.06858945 0.042095978 -0.16350862 -0.08481835
000050 56 c0 1d be 0e d3 a3 bd 57 55 ff bb 87 27 47 3c
       -0.15405402 -0.0799924 -0.0077921557 0.01215542
000060 6f cc 63 bc 81 57 17 bc da 64 04 3c 05 4c 91 bd
       -0.013903721 -0.009237171 0.0080806855 -0.07094578
000070 6f 2f 98 3e b6 80 ff bc e2 52 6f 3e 87 ef 3f be
       0.2972369 -0.031189304 0.23371461 -0.18743716
000080 4f 0f e3 bd 7a 57 28 3d 02 51 8a bd bb b3 72 3e
       -0.11086904 0.04109905 -0.06753732 0.23701374
000090 23 32 00 bc 63 61 c1 3d 52 6d 47 be db f9 d0 3c
       -0.0078244535 0.09442403 -0.19475296 0.025509765
0000a0 23 6e 1e 3e d0 71 9a 3c 9b 51 03 3d c5 bb c9 bd
       0.15471701 0.018853098 0.032060247 -0.09850267
0000b0 e9 c9 30 3e fa 40 ba bd 6b 9f 4b bc 7d 78 80 bd
       0.17264523 -0.090944245 -0.012428145 -0.06272981
0000c0 a3 a8 81 3d 52 48 18 3e 1f 3a 2a bd 19 11 81 3e
       0.06330993 0.14871338 -0.041559335 0.25208357
0000d0 dd db 99 3d ca fd 58 3d 11 31 17 be a8 d3 1f be
       0.07512639 0.052976407 -0.14764811 -0.15608084
0000e0 ab ff 68 3d 85 4c f6 bd db 66 a4 3b 91 cf 4f 3b
       0.05688445 -0.12026314 0.005017144 0.0031709413
0000f0 4c 66 67 be 7b a2 38 3e ab af 84 be 7a 01 c4 3d
       -0.22597617 0.18030731 -0.25915274 0.09570594
000100 f0 72 7a 3e 2e 8d c0 bc 76 6a d8 3d ed dd 95 bd
       0.24457908 -0.02350482 0.10567181 -0.073177196
000110 b5 23 4f bd 2e a3 76 bd 74 b0 35 3e 46 8d b8 3d
       -0.050571162 -0.060214214 0.17743093 0.09011321
000120 3d 3b f1 3c 0d 1b 14 be 7b 6a 70 3e 21 ab ea 3c
       0.029447192 -0.14463444 0.23478119 0.028646054
000130 6e 28 34 be 14 4a 1f 3e 01 a4 26 be 35 14 11 3d
       -0.17593548 0.15555602 -0.162735 0.03541966
000140 46 64 17 3e ea b4 a8 bd 99 80 8c 3d 90 55 dd 3d
       0.14784345 -0.082376316 0.068604656 0.108073354
000150 89 96 12 3e 0e bc 7e bd 77 a0 a8 3c 8b b2 27 be
       0.14315237 -0.06219106 0.020584328 -0.16376702
000160 47 06 54 be e2 5a c2 bd 5a fb 69 3d 80 f3 a8 bc
       -0.2070552 -0.09489991 0.057124473 -0.020623922
000170 8a 4e 2e bd 86 53 40 3b 87 21 6b bd 67 d9 96 3e
       -0.04255537 0.002934666 -0.05740502 0.2946274
000180 df e3 a3 bd 3b 4b 69 be 15 53 c5 3e 76 2a ea 3d
       -0.08002447 -0.22782604 0.3853995 0.1143388
000190 93 76 e4 3e 0a fb 31 3d 62 4e ef 3d 46 c3 22 3e
       0.44621715 0.0434523 0.11684872 0.15894803
0001a0 43 3a f0 bc 25 ac 74 3d 59 6a 3c be 68 50 a1 bd
       -0.029324656 0.059734482 -0.18399943 -0.078766644
0001b0 4b c0 44 3c 44 11 87 be 24 34 a4 3e 58 bf 9e 3e
       0.012008737 -0.2638036 0.3207103 0.3100536
0001c0 25 b8 c1 bc 39 70 a6 3e f4 f3 f9 3d f9 41 4f 3e
       -0.023647377 0.32507494 0.122047335 0.2024001
0001d0 db 9a 48 3e 17 be 16 bc 6f 18 18 3e d2 54 77 be
       0.19590323 -0.009200594 0.1485307 -0.2415345
0001e0 95 c0 0a bd ea de 53 be 04 e3 aa bd a8 f3 17 3e
       -0.033875067 -0.20690504 -0.08344081 0.14839041
0001f0 5e 8e f5 3d 7e cd 57 be 00 39 33 be 8e 6b 81 3d
       0.11990045 -0.21074483 -0.17502213 0.063193426
000200 6f 08 22 3e 28 e2 c1 bc b2 28 84 3d 04 69 5a bb
       0.1582353 -0.02366741 0.064530745 -0.0033326754
000210 40 5d 89 3d 24 48 3a be 44 d2 ad 3d 38 ee 32 bd
       0.06707239 -0.18191582 0.084873706 -0.043684214
000220 36 6e 85 bd f7 2d 9a 3e 68 7d 0f be fe 08 0b bd
       -0.06515162 0.30113193 -0.14012682 -0.033944122
000230 af 92 9a 3d d9 a8 b3 be 8e 8d 11 be e6 0a 4b bd
       0.07547509 -0.35089758 -0.14214155 -0.04957094
000240 f8 49 37 be 72 00 67 bd 8e ee c3 3d 09 ae 43 be
       -0.1789931 -0.05639691 0.09566985 -0.19109358
000250 6e 95 83 3e 5d e3 e2 3d b0 ea e6 3d 6d 04 9b be
       0.25699943 0.11078522 0.11275232 -0.30276814
000260 18 92 91 be f7 b6 db bd 8f 69 c7 3d c5 19 69 3e
       -0.28431773 -0.10728257 0.097369306 0.22763737
000270 56 a6 0b be b1 28 93 be ed 63 90 3d 2e 80 8c be
       -0.13637671 -0.28741983 0.07050309 -0.27441543
000280 ad 89 ea bd da 36 ff bc 3e e3 9f 3e a5 eb cc bd
       -0.11452041 -0.031154085 0.3122806 -0.10005883
000290 4d e9 92 3b 34 31 83 3e 11 47 0c bd 69 c9 62 be
       0.004483378 0.25623477 -0.03424746 -0.22147144
0002a0 ad 10 01 be bb 83 4b 3c e5 87 cc 3d 5e 84 48 be
       -0.12604018 0.012421544 0.09986857 -0.19581744
0002b0 2c b2 13 be 6e b9 e0 3d eb 3d 0f be 91 69 2f 3e
       -0.14423436 0.10972868 -0.13988464 0.17130114
0002c0 f3 cf 04 bd 84 0d 31 be 04 31 1f 3a 88 b5 83 3e
       -0.03242488 -0.17290312 0.00060726725 0.25724435
0002d0 ea 0a 4f bd ad 5c 91 3d d9 8c e1 bc 41 09 26 be
       -0.050547518 0.070977546 -0.027532982 -0.16214468
0002e0 58 4b ae be 3f b8 89 3d 1c af a2 bd 62 b8 28 3e
       -0.34041858 0.06724595 -0.07943556 0.16476586
0002f0 21 1f f3 3d e2 76 18 bd e1 ab 80 3e 79 1c 74 3e
       0.11871172 -0.03722275 0.25131133 0.23838986
000300 2d 45 25 3e c9 46 cd 3d f9 a7 e3 3d fd 3a 5f 3e
       0.1613967 0.10023267 0.111160226 0.21799846
000310 69 52 43 3e 49 13 86 3e 9a a0 a7 3e 53 b5 91 be
       0.19074406 0.26186588 0.32739717 -0.28458652
000320 c3 58 c1 3d b4 9d 2f bd a8 dc 69 3e 7d 2f 72 be
       0.09440758 -0.042875007 0.2283808 -0.23650928
000330 f0 a0 9b 3d 02 0a d4 3d d6 6e a0 3c 3d 83 8a be
       0.07599056 0.10353471 0.0195841 -0.27053252
000340 2c 29 80 3e 9e e5 fc 3d ae 57 f7 3d 4c 49 3d 3e
       0.25031412 0.123484835 0.120772704 0.18484992
000350 3d d6 0f 3e 8f fe 14 3e e7 a6 34 be d2 73 62 3e
       0.14046569 0.14550231 -0.17641793 0.22114494
000360 4f 1b ec 3c d5 b1 a8 bd 16 69 6c 3d ca 6b aa 3e
       0.028821616 -0.08237044 0.057717405 0.33285362
000370 89 4a 1a be 9e 6d 52 be 9b ba 83 be 9a 81 a8 3e
       -0.15067495 -0.20549628 -0.25728306 0.32911378
000380 2a 42 02 3e 45 1f 2d be 35 33 6e 3d b4 9f 8d 3e
       0.12720552 -0.1690646 0.058154304 0.27660906
000390 71 85 ac 3c 2e a0 58 3e e3 a6 27 3e 5e 85 68 be
       0.021059724 0.21154854 0.16372256 -0.22707126
0003a0 15 4c 2d be 5d b3 6d be 03 49 85 bd ca 53 34 3e
       -0.16923554 -0.23212953 -0.065080665 0.17610088
0003b0 62 87 e7 3c 4e ed a1 bd 60 37 43 3e bb 5b 81 3e
       0.028262798 -0.079065904 0.19064093 0.25265297
0003c0 db 40 b3 3e b5 ad 9c be 70 c8 14 be 6b 4f 29 3e
       0.35010418 -0.30601278 -0.14529586 0.16534202
0003d0 48 35 42 bd 77 82 17 3c d0 68 9c be 0a 0f c0 bc
       -0.047414094 0.009247414 -0.30548716 -0.023444671
0003e0 85 49 0a 3e b5 bd 94 bd 00 fa 32 3e f8 50 5b bd
       0.13504608 -0.07262746 0.1747818 -0.053544015
0003f0 c1 03 10 3d 1d 64 57 3e c8 8e fa bc 59 1a 1d 3e
       0.03515983 0.21034284 -0.030585662 0.15342082

layers.6.bias f4 [48]
000000 bf 46 bd 3d 9a ae 42 be f9 be 10 3e 8c f3 68 bd
       0.09242009 -0.19011918 0.1413535 -0.05687289
000010 be 44 e6 3d 67 81 83 bd 0c 8a 0e 3f 82 aa 9c 3e
       0.1124358 -0.06421166 0.5567939 0.30598837
000020 bb 23 a2 3c d4 3c 84 3e 67 c6 a2 3d 76 86 b1 3c
       0.019792428 0.25827658 0.079479985 0.021670561
000030 9b 07 af be f1 9a 78 be 61 a0 07 3e ac 73 34 be
       -0.3418549 -0.24277855 0.13244773 -0.1762225
000040 c7 8e 4c bd 7f 20 07 3e 45 4c b3 bd 3d 5c 4f 3e
       -0.04994085 0.1319599 -0.08754782 0.2025003
000050 80 7e 72 bd df ba a5 bd cb 76 33 be c9 b0 d8 bd
       -0.05920267 -0.080922835 -0.17525785 -0.10580594
000060 3e 37 a4 be c6 ac 97 bd 4b 1c ee be 23 7f 0f 3e
       -0.32073396 -0.07406001 -0.4650596 0.14013343
000070 82 5d a6 be e6 d2 2c 3d 26 c2 f3 3d a0 b8 c5 be
       -0.32493216 0.042193316 0.11902265 -0.3861742
000080 ab c5 ab be 26 41 26 3d d7 57 cb 3e 66 79 2a be
       -0.33549246 0.040589474 0.39715454 -0.16647872
000090 eb c8 5e be 02 74 50 be ec 96 12 3d 47 a2 fd 3d
       -0.21756332 -0.20356753 0.03578846 0.123844676
0000a0 8e 80 5b bd 4b eb 18 3e 12 25 fa bd 01 ab 62 3e
       -0.053589396 0.14933507 -0.12214102 0.22135545
0000b0 85 ee 89 3e fa 7c c6 3d ff bb 5d bd 1b b4 2c be
       0.26939788 0.09691806 -0.054134365 -0.1686558

layers.8.weight f4 [48, 48]
000000 ec c4 d1 3d 63 44 a5 bd fd c3 98 3e 82 22 4a 3d
       0.10242638 -0.08069684 0.29837027 0.049349315
000010 2b 4d 84 3d 56 e9 ae 3e 37 78 7d bc 76 9f 1d 3e
       0.06460031 0.34162396 -0.015470556 0.15392861
000020 82 4e 21 bd 44 05 95 3d ac 5b a9 be 1f 82 15 3d
       -0.03938151 0.07276395 -0.33077753 0.036501046
000030 4e 2a 1a be 31 65 42 be 8b 0c 80 bb e7 c8 88 3e
       -0.150552 -0.18983914 -0.0039077452 0.26715776
000040 e0 c6 a1 3e bd 4f e9 bd 69 fd 1c be eb d1 b8 3d
       0.31597042 -0.11392162 -0.15331043 0.09024414
000050 76 b1 82 3d f3 2e 4c be 6d 0e 3a be 1c 6b d6 be
       0.06381504 -0.19939785 -0.18169565 -0.41878593
000060 40 9b be 3d 6d 81 0f be 25 96 69 be 33 a1 a4 ba
       0.09306955 -0.14014216 -0.22811182 -0.0012560248
000070 78 5b fb 3d 20 22 ff bd d6 4d 3e be 5a 50 90 bd
       0.12273306 -0.12457681 -0.1858438 -0.07046576
000080 06 8a 48 be 81 e0 e4 3d 8c 6a 0f 3e 88 88 6b 3e
       -0.19583902 0.11175633 0.14005488 0.23001301
000090 81 04 f1 bd fb 6e 8c bc aa 95 cb bc ea a5 63 3e
       -0.11768437 -0.017142763 -0.024851639 0.2223126
0000a0 fe 56 dc bd e6 19 56 3c 39 b8 7b bd a2 4e 9e 3e
       -0.1075878 0.013067698 -0.061454985 0.30919367
0000b0 ab 13 a4 3d b0 93 76 3d d8 64 b3 bd 14 13 67 3e
       0.08011564 0.06019944 -0.08759469 0.22565871
0000c0 a8 fe 50 3d 5f e5 64 3d b6 de fd 3d 79 bb c9 3d
       0.05102411 0.055882808 0.12395994 0.09850211
0000d0 72 22 d1 3d cf 40 82 3c c4 9a ba 3c 89 7f 40 be
       0.10211648 0.015900044 0.022778876 -0.18798651
0000e0 82 13 8e 3d ce 29 b0 bd 11 4d 21 be c1 cd 6e be
       0.069373146 -0.086017236 -0.15752055 -0.23320676
0000f0 1b a6 1d be a7 6f c3 3d 0f fb c8 3d 09 b1 a8 3e
       -0.15395395 0.0954278 0.098135106 0.32947567
000100 c8 9a 9f bd 45 8d 64 be b7 6c d7 3d 0c 92 57 bd
       -0.07793194 -0.22319515 0.105187826 -0.052629516
000110 f2 35 ea bb 17 cf 35 3e f4 62 8c 3d 34 28 b6 3d
       -0.007147544 0.1775478 0.06854811 0.08894387
000120 9f f6 8f bb 42 14 75 bd 1c 98 35 be e3 1e 91 3d
       -0.004393413 -0.059833772 -0.17733806 0.07085969
000130 56 21 cb 3d b4 ab 11 3d 3d 08 6f be be 06 5d be
       0.09918468 0.03556414 -0.23342986 -0.21584603
000140 96 57 f8 bd b3 3d 43 be 77 75 8f 3d f7 ae 7a 3e
       -0.12126081 -0.19066505 0.070048265 0.24480806
000150 ef 1f 78 3c 83 eb ae bd a4 81 1b 3e fc d6 c2 bd
       0.015144332 -0.08541014 0.15186173 -0.09513661
000160 4a e7 81 bd 49 e0 1b be fa 5e 22 3e 99 f0 4d 3d
       -0.06342943 -0.15222277 0.15856543 0.05027828
000170 5b 90 0f 3d c6 bd 17 3e 5a b7 87 3e 07 b2 03 be
       0.035049777 0.14818487 0.26507074 -0.12860881
000180 1a d6 1f be 41 6e 05 3e 69 88 a0 3d 5f c9 51 3e
       -0.15609017 0.1303034 0.07838518 0.20486973
000190 4e 97 a6 3d dc e7 75 3d 44 71 6b 3e 03 33 bf be
       0.08134328 0.06003557 0.22992426 -0.37343606
0001a0 5b 7f 8b 3d ca ce 58 be f1 5c 9e 3e 51 b5 96 be
       0.068114005 -0.21172634 0.30930284 -0.29435208
0001b0 96 39 84 bc c2 f3 bb 3e 92 63 76 bd 10 07 68 3c
       -0.01614074 0.3670941 -0.06015355 0.01416184
0001c0 06 24 1a be 04 f4 09 3e 0c fe 88 bc 8c 1a 67 bd
       -0.15052804 0.13471991 -0.016722701 -0.0564218
0001d0 8a bc 9f be b0 fa be 3d 7f d0 e4 3d 12 c8 e9 bd
       -0.3119853 0.093251586 0.1117258 -0.114151135
0001e0 6a 6c 61 be 0e cb 95 3e b9 61 6b 3d 96 1b b6 bd
       -0.22014013 0.2925648 0.057466242 -0.0889198
0001f0 55 36 1c 3e e2 32 50 bd 51 51 86 bd f3 b8 36 3e
       0.15255101 -0.050829776 -0.065584786 0.1784399
000200 7e 68 25 3e 0f ce 9e bd 5e ba 8f bd 4d ba c2 bd
       0.16153142 -0.07754146 -0.070179686 -0.0950819
000210 fc cb a2 3d d1 5e f6 3d ed 21 3c bd 7c 39 75 be
       0.07949063 0.120298035 -0.04593079 -0.2394771
000220 8b e4 87 3c 11 f8 16 bc d3 71 2b be 8b d8 0e 3e
       0.01658847 -0.009214417 -0.16742639 0.13949792
000230 18 99 0a be 61 5a ff bd 6f 2f 2c 3e d9 57 81 be
       -0.13534963 -0.1246841 0.1681497 -0.25262335
000240 28 8e a6 3c 30 c0 1f 3e f9 47 39 bd b4 87 f3 3d
       0.020331457 0.15600657 -0.045234654 0.11891118
000250 60 ad 18 3e 32 a1 23 be d2 76 43 bd 04 65 8d 3e
       0.14909887 -0.1597946 -0.047720738 0.2761613
000260 6c 17 7a bc ac 51 1d 3d ba d8 32 be 39 c0 71 3e
       -0.015264373 0.038407966 -0.17465487 0.23608483
000270 2d 89 ce 3d 17 16 94 be 8a 88 b4 3e c9 af f1 be
       0.10084758 -0.28923103 0.3526042 -0.47204426
000280 a8 e4 23 3d 90 5a 22 3e 21 5d 13 3d 02 24 e8 3d
       0.040012985 0.1585486 0.035977487 0.11334993
000290 9b 91 da 3c b7 64 28 bd 75 b6 07 3e 9d e3 46 be
       0.026680758 -0.041111674 0.13253196 -0.19422765
0002a0 b8 63 99 bc 80 bf f6 3d 00 33 55 3d f8 a2 7b 3d
       -0.018724307 0.120482445 0.05205059 0.061434716
0002b0 ca 92 27 3e 8c 92 2b be b4 c9 83 bd 82 f7 3a bc
       0.1636459 -0.16755122 -0.06434956 -0.0114115495
0002c0 96 2d 56 bd 2c 71 c6 bd 5d 7d fe 3d c3 ae 22 3e
       -0.052289568 -0.096895546 0.12426255 0.15886979
0002d0 73 73 a4 3e 62 d8 28 bd 5f 01 40 3b 2d 4c 15 3e
       0.3211933 -0.041221984 0.0029297692 0.1457984
0002e0 96 40 cf 3d 2d 85 f1 be 03 66 50 3e ee 2a cf 3d
       0.10119741 -0.47171918 0.20351414 0.1011561
0002f0 ce 97 2a 3e 22 fb 82 be b1 ee 8d 3e 25 54 4c be
       0.16659471 -0.25582224 0.2772117 -0.19953974
000300 3a ca 4c 3e 3a 1f f1 3d cb 49 40 bd 13 95 41 be
       0.19999018 0.11773534 -0.046945374 -0.18904524
000310 44 4a a5 3b 42 bb ae 3d 32 06 87 3d 31 b3 b8 3d
       0.0050442535 0.0853181 0.065929785 0.09018553
000320 70 7c 38 be 48 d8 f9 3d c1 5a 8c bd 08 73 57 3d
       -0.18016219 0.121994555 -0.068532474 0.052599937
000330 e7 4b 7d be fe be 12 3e fd ed e0 bd c8 38 17 3f
       -0.24735986 0.1433067 -0.10982893 0.59071016
000340 95 83 dc 3d 69 bb a9 bb fc fd 62 be 7f 3a 07 3e
       0.10767285 -0.0051798117 -0.221672 0.13205908
000350 8e 9b 69 be 86 00 3e bd 7d f0 b3 3d 92 87 ce bd
       -0.22813246 -0.046387218 0.08786104 -0.10084452
000360 02 e2 53 3d ff c9 e0 bd f2 91 36 bd 4f 2e 8c be
       0.05172921 -0.10976028 -0.044572778 -0.2737908
000370 1b 14 9e 3d 27 76 b8 3c 25 71 32 3d 5d 78 92 bd
       0.077186786 0.022517277 0.043564934 -0.07151864
000380 56 40 f3 3e 5b bd 71 bc ae 18 a0 3c c0 b1 9c bd
       0.47510022 -0.0147546185 0.019543018 -0.076510906
000390 0f 81 f7 3c c1 02 d5 bd fd 44 93 3d 21 bf 44 be
       0.030212907 -0.10400916 0.07190893 -0.19213535
0003a0 79 42 f6 3d 11 cd 06 3f 5c 14 3e bd a7 a8 07 3d
       0.120243974 0.52656657 -0.046406135 0.033119824
0003b0 fa 05 c1 3d ac 1f e2 3c cc f6 3c be 5c 64 ed bd
       0.09424968 0.027602993 -0.1845352 -0.11591408
0003c0 6b 7c bc bc 5f bf 5b be 52 3a 15 be 8d ec 17 3e
       -0.023008546 -0.21459721 -0.14573029 0.1483633
0003d0 9b 9d 04 3d b7 70 6a be f8 69 d3 bc 23 0b 2e 3c
       0.032376867 -0.2289456 -0.025807366 0.010622772
0003e0 18 ae d5 3d 80 33 94 3d 7a 65 fd bd 26 c5 3b be
       0.104335964 0.07236385 -0.12372871 -0.18336925
0003f0 fd 4e 0d be b4 e8 48 3c 3e a4 dd 3d e0 7c 7c 3d
       -0.13799663 0.012262512 0.10822342 0.061642528

layers.8.bias f4 [48]
000000 34 59 46 3e 3e 8d 1f 3e 89 f0 17 be dd bf b8 3e
       0.19369966 0.15581223 -0.1483785 0.3608388
000010 ff ba b9 3d 28 10 a4 3e 63 23 56 3d 66 5a 7f be
       0.0906887 0.32043576 0.05227984 -0.24936828
000020 5b cd 8e bc d5 53 85 be a2 ae 0d be e4 e8 04 be
       -0.017431905 -0.2604052 -0.13836148 -0.12979466
000030 c9 62 60 3e df 74 b0 bd e2 14 4c 3e bc c6 17 be
       0.21912684 -0.086160414 0.19929841 -0.14821905
000040 19 c3 5b be e8 04 46 bb 8f a7 1a be 54 02 01 3f
       -0.21461143 -0.0030215327 -0.15102981 0.5039418
000050 f7 8d d8 3c ea 97 1a bb b8 80 53 3e 01 e3 96 be
       0.026434882 -0.0023589083 0.20654571 -0.29470065
000060 d2 03 bd be 86 1d 98 bd 3e 41 98 3c 2e 30 2a 3e
       -0.36916977 -0.07427506 0.018585797 0.16619942
000070 2c a3 32 3c 14 5a 6c be f7 50 42 3e ca fc ef 3e
       0.010903161 -0.23081237 0.18976198 0.4687255
000080 56 be 3e 3e c0 80 92 3e a2 3f ac bd 6a 4c bb 3d
       0.18627295 0.28613853 -0.084105745 0.09145434
000090 e8 d1 3e 3e 62 40 5f bd f9 6d ec be 8a 02 6d be
       0.1863476 -0.05450476 -0.46177652 -0.231455
0000a0 be 34 df 3d 9a a6 16 be ea e2 0f 3c c1 c1 c5 3e
       0.10898732 -0.14711991 0.008782128 0.38624385
0000b0 a0 63 dc bd 97 4b 93 3e 0f 05 66 be 03 df ff 3d
       -0.107611895 0.28768608 -0.22462867 0.12493708

layers.10.weight f4 [48, 48]
000000 7c a8 03 3e 75 9f e0 bd d8 c7 8c 3e 13 86 c3 be
       0.1285724 -0.10967914 0.2749622 -0.38188228
000010 99 c4 55 3e f2 00 d8 bd 87 de 06 be f1 3f 54 3d
       0.20875777 -0.10547055 -0.13170825 0.05181879
000020 d2 e6 30 3d b6 af 16 3e 93 a1 4d bb 43 5b 56 3d
       0.043188877 0.14715466 -0.0031376823 0.052333128
000030 ea 1b b1 3b 96 5a fc bd 77 c5 1b be 79 bc 18 3e
       0.005404939 -0.123219654 -0.15212046 0.14915647
000040 cd 6b 0a bd 6e 79 8a 3e 99 a9 86 3e 51 f4 31 bd
       -0.033794213 0.27045768 0.26301268 -0.04344589
000050 8a 7b 69 bd fb 41 90 3d 9a b6 44 bd 19 88 3b be
       -0.05700258 0.07043835 -0.048025705 -0.18313636
000060 84 69 15 3d 6a 31 3d bd 6a ed 9b be 71 44 a2 bc
       0.03647758 -0.046189703 -0.3045457 -0.019808026
000070 b0 c3 d3 3d 4c 10 2c be 71 a3 b3 bd 3d 7f 0f 3e
       0.10340059 -0.16803092 -0.08771408 0.14013381
000080 eb 35 ad 3d 4e 40 2e be 71 4b 38 be 79 58 e0 3b
       0.0845755 -0.17016718 -0.17997529 0.0068464843
000090 38 40 3a be ee c3 d5 bd e8 55 68 3b 39 09 55 be
       -0.1818856 -0.10437761 0.0035451595 -0.208043
0000a0 b4 22 8e be 19 d5 01 3e a0 20 52 3e 3c ab a8 3c
       -0.2776085 0.12678947 0.20520258 0.020589463
0000b0 ec 3f b6 bd 5e d8 89 bc cd 42 8b 3d 0e 0c 9c bd
       -0.08898911 -0.016826805 0.067998506 -0.07619487
0000c0 ee 5b 36 bd f4 19 26 3d 3c 5f 63 bb 83 e8 74 3d
       -0.044521265 0.040552095 -0.0034694215 0.059792053
0000d0 a1 0d 34 3e db 5b 89 3c a3 44 09 bd c3 02 89 3d
       0.17583324 0.016767433 -0.033512723 0.0668998
0000e0 02 c9 16 3e 3e a6 14 3e 43 bc 01 3e 11 c5 01 be
       0.14725116 0.14516541 0.12669472 -0.12672831
0000f0 3b 54 d6 bb 95 d2 f7 3c fd 20 c8 bc 4e 96 5a bc
       -0.006540803 0.03025178 -0.024429793 -0.0133414995
000100 01 37 86 bd 39 18 62 3d bf 3d 5f bb 6a 26 bf bd
       -0.0655346 0.05519888 -0.0034063903 -0.09333499
000110 0e 8c 0f be 3f 3d d8 3d 9a a0 78 3d fb 11 ac 3e
       -0.1401827 0.10558557 0.060700037 0.33607468
000120 c5 34 a4 3d c5 b9 98 3d 7c fb 6d bd 7b 5c 1f bd
       0.080178775 0.07457308 -0.058101162 -0.038906556
000130 fa 21 5d bd c9 ec 86 3e 74 fc 5a bd da 86 58 be
       -0.05398748 0.26352528 -0.053463414 -0.21145192
000140 c3 b5 d9 bd 94 ce 83 3e 59 8e 22 3e 94 78 01 be
       -0.106303714 0.25743544 0.15874614 -0.12643653
000150 0c c9 49 3d f0 f9 1d 3d 93 38 ab 3e 52 3b 5f 3d
       0.049264 0.038568437 0.334416 0.05449993
000160 d5 5c c9 3c 2e c0 58 3d 3e 9a d5 3d 86 4a e7 bd
       0.024580399 0.05291765 0.1042981 -0.11293511
000170 06 2f a7 bc 84 b5 9c bd f7 70 b7 bc 86 3b a9 3d
       -0.020408165 -0.07651809 -0.022392733 0.08263306
000180 2c aa 60 be b3 fd 95 3e 50 e4 ac 3d ca ea 3b be
       -0.21939915 0.2929512 0.08441985 -0.18351284
000190 71 46 c3 bb 17 32 7d 3e 51 38 27 be 88 b1 ea bd
       -0.005959325 0.24726139 -0.16330077 -0.11459643
0001a0 fa 9d 1f 3e 25 8f 20 bc d6 ee 3e 3d de 51 04 be
       0.15587607 -0.009799753 0.04661449 -0.12921855
0001b0 e7 48 e6 bd 39 6b 7f bd d9 b8 ff 3c a0 3f d0 3d
       -0.11244374 -0.062358115 0.031216072 0.101683855
0001c0 6a 71 55 3e 2d a9 9f 3d a2 3b eb 3d ba c6 7c bd
       0.20844045 0.077959396 0.114859834 -0.061712958
0001d0 b8 f7 d4 bc 33 7b d6 bd a4 59 6d 3d c8 6a 89 bd
       -0.025997028 -0.10472717 0.057946816 -0.0670982
0001e0 5e fa ff bd 7b 36 01 be 69 19 8c be 1a fb bc bd
       -0.124989256 -0.12618439 -0.27363136 -0.09227581
0001f0 c2 28 2e 3e 21 8c f3 bc 2c 4e 72 be 60 32 85 3d
       0.17007735 -0.029729905 -0.23662633 0.06503749
000200 ec ac b9 3d 0e 8d 9d bd ec f6 de bd ed b7 d0 bc
       0.09066185 -0.0769292 -0.1088694 -0.025478328
000210 a5 28 99 bb 34 1e c8 be 43 86 31 bd cc 82 22 be
       -0.0046740347 -0.39085543 -0.043340933 -0.15870208
000220 ac ec b6 bd 47 71 5c bd 93 ca e8 bd 32 9b aa 3c
       -0.0893186 -0.053818967 -0.11366763 0.020825956
000230 0c 4b 0e 3d 26 85 07 be 84 bd e4 3d 66 86 61 be
       0.03473954 -0.13234386 0.1116896 -0.22023925
000240 d8 f1 a6 3d 0f 7f c7 3d 3b 85 75 3d 8a 49 72 3d
       0.08151597 0.097410314 0.05994151 0.059152164
000250 3f 2f 08 bd cc 0c 24 be 46 4c c9 3d 15 7f 9e bd
       -0.033248182 -0.16020507 0.09829001 -0.07739083
000260 63 03 b1 bd f9 26 c6 3c ed ae 28 be f0 c7 23 bc
       -0.08643224 0.024188505 -0.16472979 -0.009996399
000270 19 ce 73 bd 16 4f d9 bc 7a 8e 53 bd 13 33 e1 bc
       -0.059522722 -0.026526969 -0.051649548 -0.027490174
000280 fb 32 1e 3e 77 b1 d1 bd 9b 2a 8e 3d 9c 26 d4 bb
       0.15449135 -0.10238927 0.0694172 -0.006474329
000290 e6 a8 ec bd 45 b4 a0 bc 77 dc b1 3d ec d1 c5 3d
       -0.11555652 -0.01961721 0.086846285 0.0965918
0002a0 9e c5 11 bc a2 c8 79 be 21 25 d3 bd da bb d5 bd
       -0.008897213 -0.24392942 -0.10309816 -0.104362205
0002b0 68 cc 01 3d bf a2 54 3e f4 c0 c7 bb 8f ce 37 be
       0.031689078 0.20765208 -0.006096 -0.1794989
0002c0 a6 b7 2b 3e cd 6d c3 bd ba 3d 72 3e 5c 7c cc 3a
       0.16769275 -0.09542427 0.2365636 0.0015601027
0002d0 1d 4b c2 3d e1 77 db bd 84 32 a0 bd f2 e0 1a bd
       0.09486983 -0.107162245 -0.07822135 -0.03781218
0002e0 27 2c 90 3c a8 da b9 bd c1 a9 02 be a4 c7 7d be
       0.017599178 -0.090749085 -0.12760068 -0.24783188
0002f0 fc 76 56 bd f0 8b 0d bd ba fc f8 bd 11 ec 62 3d
       -0.052359566 -0.034557283 -0.12157579 0.05540091
000300 6f c8 89 3e 09 28 c4 bd 25 8a 89 be 90 f5 09 bc
       0.2691073 -0.095779486 -0.26863208 -0.008420363
000310 b7 66 16 3e 64 fa 05 3c ea 21 72 3e 0d 1c 93 3e
       0.1468762 0.008177374 0.2364575 0.2873234
000320 70 ef 58 be 41 d9 68 bd a7 e0 33 be 12 ff 46 be
       -0.21185088 -0.056847814 -0.17566167 -0.19433239
000330 d6 e3 68 3d 9f 59 d8 3b 22 93 fc b8 7a 57 97 bd
       0.056857906 0.0066024805 -0.00012043702 -0.07389732
000340 51 a8 8b be 3f 97 d4 bc a2 fd 91 be 5d cd d7 3d
       -0.27276853 -0.025951026 -0.2851382 0.10537217
000350 36 ce 52 be b6 dd 3c bd 5c 7c 1c 3d a5 5e b5 bc
       -0.20586476 -0.046109878 0.038204536 -0.022139857
000360 b5 c8 88 bd e4 ee 0b 3e fd 6a be 3e d1 68 51 3e
       -0.06678907 0.13665348 0.37191 0.2045014
000370 87 5f b7 be 5f 58 8d bd a4 c3 8b 3e e1 ae c5 3c
       -0.3581507 -0.06901621 0.272977 0.02413124
000380 b8 a6 10 be 3e 7b f3 3d d3 6e 16 3e 52 37 ea 3d
       -0.14126098 0.11888741 0.14690714 0.11436333
000390 f3 9e 9b bb 30 eb e8 3e 23 ef 3e 3d cc 84 10 be
       -0.004749173 0.45491934 0.046614777 -0.14113158
0003a0 73 c5 f7 3d e5 2b b9 bc 3e 8e a7 be 9f 71 11 3d
       0.12098207 -0.022603938 -0.3272571 0.03550875
0003b0 20 55 f4 bd f2 ec e5 3d 39 47 f0 3d 24 e0 c8 3d
       -0.11930299 0.11226834 0.11732335 0.098083764
0003c0 fc 02 7a be 3f 9d b8 3d c3 9e 53 3e 50 70 11 3e
       -0.24415201 0.09014367 0.20666032 0.14203
0003d0 ea 72 17 be 13 4f 15 be 3b 33 05 be 4e d4 de 3d
       -0.1478993 -0.14580946 -0.13007824 0.10880338
0003e0 38 0f df bd 1c bc b4 bd 29 e0 1a bd cd c2 c0 3d
       -0.108915746 -0.088249415 -0.037811432 0.09412155
0003f0 aa 43 0e be 02 77 5b be 7d 53 1e bd 6e e4 fd bd
       -0.13893 -0.21432117 -0.03865384 -0.12397085

layers.10.bias f4 [48]
000000 e4 cb 01 be 92 93 b6 be 69 73 60 be ef 6f 38 be
       -0.12675434 -0.35659462 -0.21919025 -0.1801145
000010 ee 95 a2 3e 1e 73 b2 be e7 ac 7b 3e e5 fa be bd
       0.31755012 -0.34853452 0.24577676 -0.09325198
000020 82 b4 b9 bd 16 da 67 3c 9f 7f 2e 3d bd 7d c8 bb
       -0.09067632 0.014151117 0.042602178 -0.006118505
000030 67 14 36 3d d2 5f 9c 3e 40 af e2 3d 6c 03 18 3e
       0.04445305 0.30541855 0.110685825 0.14845055
000040 63 59 a0 bd a4 1b 6e bb 6c 6f 2a be 28 07 64 bd
       -0.07829549 -0.0036332393 -0.16644067 -0.055670887
000050 82 39 88 3c 8c 70 3b be 97 3e b9 be 5d 95 b0 3e
       0.016628984 -0.18304652 -0.36180565 0.34488955
000060 d1 e2 82 3e b8 ac a0 bd 00 7b 82 3b 60 49 be 3d
       0.25563672 -0.078454435 0.003981948 0.09291339
000070 bc 98 e4 3d 05 26 3f bd 94 66 b8 be b9 34 32 3e
       0.11161944 -0.046667118 -0.3601576 0.17402925
000080 6e e9 75 3e 1e 97 a2 bd 3e f1 d9 bc aa 34 51 3e
       0.24014828 -0.079389796 -0.026604291 0.20430246
000090 c4 1a 37 3e 96 13 90 be d3 21 39 3e 7f 1d c3 be
       0.17881304 -0.28139943 0.18079309 -0.3810844
0000a0 83 eb a4 3e 2e 0b 5a 3d 91 f2 e4 bc d6 51 2f 3f
       0.3221093 0.053233318 -0.027947696 0.68484247
0000b0 6b 3e d0 3d ad a1 a2 3e ce e8 10 3e b7 53 0b be
       0.10168155 0.31763974 0.14151308 -0.13606153
